AutogluonModels/ag-20241116_200139/models/NeuralNetFastAI/model-internals.pkl (torch, 131220 bytes, 16 tensors)

weight f4 [4]
0	0x3f7d7c7c	0.99018073
1	0x3f661649	0.89877754
2	0x3f813030	1.0092831
3	0x3f85b56a	1.0445988

bias f4 [4]
0	0xbc8cf21b	-0.017205289
1	0x3d2b510e	0.041825347
2	0xbd6abebb	-0.0573108
3	0x3d5d6b07	0.054057147

running_mean f4 [4]
0	0xbcac2eca	-0.021018405
1	0xbcdedbe6	-0.027204465
2	0xbb815024	-0.003946321
3	0xbb267530	-0.002539944

running_var f4 [4]
0	0x3f7145d2	0.9424716
1	0x3f780435	0.9688142
2	0x3f7e1e2d	0.99264795
3	0x3f805568	1.0026064

weight f4 [200, 4]
0	0x3c051139	0.008121782
1	0x3e82c5fa	0.2554167
2	0xbed10d6a	-0.40830547
3	0xbecb4462	-0.3970061
4	0xbe232402	-0.15931705
5	0x3dd6e344	0.10492566
6	0x3a143cf0	0.00056548323
7	0x3eddfbf3	0.43356284
8	0xbd597f62	-0.053099997
9	0x3de049d3	0.10951581
10	0xbe29d12a	-0.16583696
11	0xbe12500c	-0.14288348
12	0xbef307b7	-0.47466823
13	0xbea89205	-0.32923904
14	0xbe5a93e8	-0.21345484
15	0x3cd13c0f	0.025541333
16	0x3e0bebf3	0.13664226
17	0x3e79b01e	0.2438359
18	0xbecb7bd8	-0.39742923
19	0xbe8ce6d0	-0.27519846
20	0x3e5b8dd3	0.2144082
21	0x3eb6fc98	0.3573959
22	0xbd7a69a1	-0.06113589
23	0x3edbbe91	0.42918828
24	0xbd1c6b4c	-0.038188264
25	0x3cbea796	0.02327327
26	0x3ef46234	0.47731173
27	0xbee5422a	-0.44777042
28	0xbeab8c7b	-0.33505616
29	0xbddb82f6	-0.10718338
30	0xbe6b0495	-0.22950967
31	0x3ed1fcfe	0.4101333
32	0xbea676d5	-0.32512537
33	0xbe6811b0	-0.22662997
34	0xbeb5a45c	-0.3547696
35	0xbeee782c	-0.4657606
36	0xbea4dca6	-0.3219959
37	0x3eefe8f0	0.46857405
38	0x3e38a03c	0.18029875
39	0x3e50214e	0.20325205
40	0xbb07d03f	-0.002072349
41	0xbe5a9d36	-0.21349034
42	0x3d7699b8	0.06020519
43	0xbf002e31	-0.5007048
44	0xbecd0a53	-0.4004694
45	0xbe880ea4	-0.2657367
46	0x3e910ee1	0.28331664
47	0x3e865eac	0.26244104
48	0xbe44a00c	-0.19201678
49	0xbd13bfe2	-0.036071666
50	0x3ec0e4d1	0.37674573
51	0x3eeb5100	0.45960236
52	0x3de4183b	0.11137434
53	0x3db24fbc	0.087066144
54	0x3e8fbfba	0.28075963
55	0xbec3021b	-0.38087544
56	0x3defa094	0.1170055
57	0xbec92c51	-0.39291623
58	0xbeaea26c	-0.34108293
59	0xbe7a0dfb	-0.24419396
60	0x3e814020	0.25244236
61	0x3e2cb761	0.16866829
62	0xbe8b938d	-0.2726101
63	0x3e317755	0.17330678
64	0x3e4bda9d	0.19907613
65	0xbdc3ed73	-0.09566774
66	0x3dec03a3	0.11524131
67	0x3e1b1946	0.1514636
68	0x3e9eb648	0.30998445
69	0x3ef7701d	0.48327723
70	0xbec494dd	-0.38394824
71	0xbe3912ee	-0.18073627
72	0x3e6d8482	0.23195079
73	0x3ed17334	0.40908206
74	0x3eea0b31	0.45711663
75	0x3ed41003	0.41418466
76	0x3e094f08	0.13409054
77	0xbed9120b	-0.42396578
78	0x3cc5a575	0.024126748
79	0xbea17db1	-0.31541207
80	0xbef716ec	-0.48259676
81	0x3ecfb1b5	0.40565267
82	0x3ec6357e	0.38712686
83	0xbefe6576	-0.49686784
84	0x3d7c7c26	0.061641835
85	0xbdb9a816	-0.09065263
86	0xbdbd8d4a	-0.092554644
87	0xbe701753	-0.23446397
88	0x3e3c5a82	0.18393901
89	0xbe9069aa	-0.28205615
90	0x3e6807df	0.22659253
91	0x3e88152e	0.2657866
92	0x3ea6476c	0.32476366
93	0x3e2440b0	0.16040301
94	0xbf063690	-0.52427006
95	0xbeb3581d	-0.35028163
96	0x3e7a2183	0.24426846
97	0x3db1439c	0.086554736
98	0xbecb78ee	-0.397407
99	0xbe970614	-0.29496825
100	0x3ef4c8a8	0.4780934
101	0x3ea72306	0.32643908
102	0xbe561a86	-0.20908555
103	0xbdf9e261	-0.122013815
104	0xbedcb7c1	-0.43108943
105	0x3c9a2433	0.01881609
106	0xbecf6f45	-0.4051458
107	0xbedbd4bf	-0.4293575
108	0xbd188edd	-0.03724562
109	0x3d70ec7d	0.058819283
110	0xbe6a2a56	-0.22867712
111	0x3e91aeea	0.2845376
112	0xbea3240b	-0.31863436
113	0x3ee0adad	0.43882504
114	0x3eb37f73	0.35058174
115	0xbed43b6d	-0.41451588
116	0xbda7aa49	-0.08186776
117	0xbbe3221a	-0.0069315555
118	0x3e03fc30	0.1288917
119	0x3e1bc26a	0.15210882
120	0x3e052c48	0.13005173
121	0x3d92f99b	0.07176515
122	0xbe6d2b7a	-0.23161116
123	0x3e8dae94	0.27672255
124	0xbefcaa81	-0.49348834
125	0xbe8482fd	-0.25881186
126	0xbe29c9ae	-0.16580841
127	0xbe929bbe	-0.28634447
128	0xbe4dbf3f	-0.20092486
129	0xbec30eac	-0.3809713
130	0xbe12cfb2	-0.14337042
131	0x3d922ea5	0.07137803
132	0xbeb8100e	-0.3594975
133	0xbcab13e1	-0.020883502
134	0x3ea69028	0.32531857
135	0xbda07894	-0.078354985
136	0x3cfa7fbf	0.030578492
137	0xbd888dc4	-0.06667665
138	0x3e13352c	0.14375752
139	0x3e8ba011	0.27270558
140	0x3ee0fc1f	0.43942353
141	0x3e9ba894	0.30402052
142	0x3f0260b9	0.5092884
143	0xbc7587fd	-0.014986035
144	0xbef41eee	-0.47679847
145	0xbe513a41	-0.20432378
146	0x3ea59a95	0.323445
147	0xbc5dbf0f	-0.013534321
148	0xbe5c0f84	-0.21490294
149	0xbec713dd	-0.38882342
150	0xbeeb09f8	-0.45906043
151	0xbedc805d	-0.43066683
152	0xbe02bb3c	-0.12766737
153	0x3e8014f9	0.25016
154	0x3e759fdf	0.23986767
155	0xbf01b467	-0.506659
156	0x3ea3ec1c	0.32016075
157	0xbea9506f	-0.33069178
158	0xbe1a218d	-0.15051861
159	0xbe66c173	-0.22534733
160	0xbd70d826	-0.058799885
161	0xbd67ee37	-0.056623664
162	0xbef44b12	-0.47713524
163	0xbeef8bc3	-0.46786317
164	0xbddbcd97	-0.107325725
165	0x3bc9755e	0.0061480245
166	0xbe81f111	-0.25379232
167	0x3e1bc55e	0.15212008
168	0xbef8045a	-0.4844082
169	0x3cae01ac	0.021241032
170	0x3ed362b1	0.41286233
171	0xbe5fd4d3	-0.2185853
172	0x3ed5b58f	0.4174008
173	0x3e59f988	0.21286595
174	0xbef6bf41	-0.4819279
175	0x3e914e78	0.2838018
176	0xbd85f624	-0.06541088
177	0xbe62ed95	-0.22160943
178	0x3ec6d3b1	0.38833383
179	0xbed5a2e1	-0.4172583
180	0x3cbcd129	0.023048954
181	0xbdc8fedf	-0.09814238
182	0x3ecd0e8a	0.40050155
183	0x3df38225	0.118900575
184	0x3e49e72c	0.19717091
185	0x3e5342ed	0.20630999
186	0xbe23212e	-0.15930626
187	0xbe11f45c	-0.14253372
188	0xbebe4970	-0.37165403
189	0x3e562fa5	0.20916612
190	0x3eef3085	0.46716705
191	0x3ecef5be	0.4042186
192	0xbea32fbc	-0.31872356
193	0x3d2a98a4	0.041649476
194	0xbec7ed69	-0.39048317
195	0xbe981b43	-0.297083
196	0xbe9929c2	-0.2991467
197	0x3e1959f4	0.1497572
198	0xbeb1382b	-0.34613165
199	0xbdaa6306	-0.083196685
200	0x3c0d32b4	0.008618046
201	0x3e98f0d8	0.2987125
202	0xbec8d946	-0.39228266
203	0xbebdedb8	-0.37095428
204	0xbe7a5876	-0.24447808
205	0x3ea36f35	0.31920782
206	0xbe17a616	-0.1480945
207	0x3eec2ce5	0.46128002
208	0x3e29346c	0.16523904
209	0x3dd67dcf	0.10473215
210	0xbceae2c1	-0.028672578
211	0xbdd510d3	-0.104035996
212	0x3da7bd01	0.081903465
213	0xbdc8fc9c	-0.098138064
214	0x3d4de73d	0.050269354
215	0x3da24d47	0.07924896
216	0xbecc9753	-0.399592
217	0xbe893269	-0.26796272
218	0x3ec2ab66	0.38021392
219	0xbed63603	-0.41838083
220	0xbd840dcf	-0.06447946
221	0x3f04c5eb	0.518645
222	0x3e1bd918	0.15219533
223	0xbc6dcbde	-0.014513938
224	0xbed415e3	-0.41422948
225	0x3e818bcb	0.25301966
226	0xbec8e360	-0.39235973
227	0xbe483b43	-0.19553857
228	0xbdfb0f7e	-0.12258814
229	0xbd86b809	-0.06578071
230	0x3db313cf	0.087440126
231	0x3ee44a54	0.44587958
232	0x3d46799c	0.04845582
233	0x3eeb12e1	0.4591284
234	0x3e97eeb1	0.29674295
235	0xbea4e84a	-0.32208472
236	0x3e5b52a0	0.21418238
237	0xbeb966a8	-0.36211133
238	0xbe3e94a2	-0.18611386
239	0x3e32d4ea	0.17464033
240	0x3e103616	0.14083132
241	0x3eb26603	0.34843454
242	0xbe41e606	-0.18935403
243	0xbcfd26b5	-0.030902246
244	0x3e7e4a01	0.24832918
245	0xbef9d490	-0.48794985
246	0x3ec46c0a	0.38363677
247	0xbec9f730	-0.39446402
248	0x3c6e99c2	0.014563026
249	0xbdcd46f9	-0.100233026
250	0xbe81e03c	-0.2536639
251	0x3d9e1f5a	0.077208236
252	0x3edc2e85	0.43004242
253	0xbe07fc0f	-0.13279746
254	0xbe9ad3d9	-0.30239752
255	0xbe21521c	-0.15753978

weight f4 [200]
0	0x3f847fe0	1.0351524
1	0x3f82e4e1	1.0226098
2	0x3f82cf04	1.0219426
3	0x3f7c3162	0.9851285
4	0x3f844e80	1.0336456
5	0x3f7d3f96	0.9892515
6	0x3f8f49ab	1.1194357
7	0x3f7f8e08	0.998261
8	0x3f815645	1.0104452
9	0x3f7487eb	0.95519894
10	0x3f7c9f94	0.98680997
11	0x3f771c3c	0.9652746
12	0x3f79e04f	0.9760789
13	0x3f796484	0.97419
14	0x3f82bb12	1.0213339
15	0x3f7683ee	0.9629506
16	0x3f81f12d	1.0151726
17	0x3f7be098	0.9838958
18	0x3f77f006	0.9685062
19	0x3f7ffa2a	0.99991095
20	0x3f7959db	0.97402734
21	0x3f8473ef	1.034788
22	0x3f84b907	1.0368966
23	0x3f7a6d3b	0.9782292
24	0x3f852f9d	1.0405155
25	0x3f7edf44	0.99559426
26	0x3f80f552	1.0074866
27	0x3f793652	0.9734851
28	0x3f79ab2c	0.9752681
29	0x3f840b90	1.0316029
30	0x3f813fa0	1.0097542
31	0x3f847bb1	1.0350248
32	0x3f818ef9	1.0121757
33	0x3f749a18	0.9554763
34	0x3f79963a	0.9749485
35	0x3f7fb6fd	0.9988859
36	0x3f77dbc0	0.96819687
37	0x3f814502	1.0099185
38	0x3f8245dd	1.017757
39	0x3f8049d4	1.002253
40	0x3f8314de	1.0240743
41	0x3f78c383	0.9717333
42	0x3f80adfb	1.0053095
43	0x3f75dfbe	0.9604453
44	0x3f7f0bd7	0.9962744
45	0x3f82ed68	1.0228701
46	0x3f829dbb	1.0204386
47	0x3f80ccf4	1.0062547
48	0x3f83991f	1.0281104
49	0x3f8053b8	1.0025549
50	0x3f83af60	1.0287895
51	0x3f773779	0.9656902
52	0x3f80ca0f	1.0061663
53	0x3f7c0b3d	0.9845465
54	0x3f7eab7e	0.99480426
55	0x3f7c6816	0.9859632
56	0x3f84324c	1.0327849
57	0x3f78d346	0.9719738
58	0x3f732f9f	0.9499454
59	0x3f7ba8c2	0.9830438
60	0x3f796ae0	0.97428703
61	0x3f7b27a7	0.9810738
62	0x3f7a60b5	0.97803813
63	0x3f883143	1.0640033
64	0x3f8319f8	1.02423
65	0x3f76e35d	0.9644068
66	0x3f6cec0a	0.9254767
67	0x3f7879cb	0.9706084
68	0x3f852400	1.0401611
69	0x3f78e774	0.9722817
70	0x3f79b450	0.9754076
71	0x3f73cc4d	0.95233613
72	0x3f84fc9a	1.0389588
73	0x3f8384db	1.0274919
74	0x3f7e90d0	0.99439716
75	0x3f7de58c	0.99178386
76	0x3f7dfa67	0.9921021
77	0x3f767e9c	0.9628694
78	0x3f83fcf7	1.0311574
79	0x3f83b755	1.0290323
80	0x3f861fd4	1.0478463
81	0x3f7752f2	0.9661094
82	0x3f84f20b	1.0386366
83	0x3f8307b6	1.0236728
84	0x3f83a438	1.028449
85	0x3f87b684	1.0602574
86	0x3f73263e	0.9498023
87	0x3f79e720	0.97618294
88	0x3f72e1ab	0.9487559
89	0x3f812e45	1.0092245
90	0x3f7ed5e0	0.995451
91	0x3f78cb17	0.9718489
92	0x3f806521	1.0030862
93	0x3f7a08de	0.9766978
94	0x3f8214ae	1.0162561
95	0x3f8301d3	1.0234932
96	0x3f7e6b6e	0.99382675
97	0x3f81c300	1.0137634
98	0x3f7a28a8	0.97718287
99	0x3f74e9e0	0.95669365
100	0x3f7e2518	0.9927535
101	0x3f844d65	1.0336119
102	0x3f842a1d	1.0325352
103	0x3f849cb3	1.0360321
104	0x3f7f9de0	0.99850273
105	0x3f80bdad	1.0057884
106	0x3f8021e6	1.0010345
107	0x3f820d4a	1.0160306
108	0x3f82b8ba	1.0212624
109	0x3f77bbd1	0.9677096
110	0x3f790348	0.9727063
111	0x3f831795	1.0241572
112	0x3f7705d9	0.964933
113	0x3f7e58a1	0.99353987
114	0x3f84f85c	1.0388293
115	0x3f80a44c	1.005014
116	0x3f7876a1	0.97056013
117	0x3f794820	0.9737568
118	0x3f7b7874	0.9823067
119	0x3f84140c	1.0318618
120	0x3f7952e2	0.97392094
121	0x3f8174b6	1.0113742
122	0x3f70c5c7	0.94051784
123	0x3f830485	1.0235754
124	0x3f785324	0.9700186
125	0x3f7fb292	0.9988185
126	0x3f79fa96	0.9764799
127	0x3f7baad1	0.9830752
128	0x3f7c0ac8	0.9845395
129	0x3f7ef149	0.9958692
130	0x3f7e8f09	0.99437004
131	0x3f7b0ed7	0.9806952
132	0x3f864869	1.0490848
133	0x3f7a2d75	0.9772561
134	0x3f77bf54	0.9677632
135	0x3f8683e7	1.0509003
136	0x3f837275	1.0269305
137	0x3f838229	1.0274097
138	0x3f83ed39	1.030677
139	0x3f85d196	1.0454586
140	0x3f79569d	0.97397786
141	0x3f83ab12	1.0286582
142	0x3f82d3b9	1.0220863
143	0x3f7ea436	0.99469316
144	0x3f80a987	1.0051736
145	0x3f7ab94c	0.9793899
146	0x3f83ace9	1.0287143
147	0x3f83550d	1.026033
148	0x3f73f1af	0.95290655
149	0x3f76a533	0.96345824
150	0x3f806ca8	1.0033159
151	0x3f7fc57e	0.99910724
152	0x3f7c10fc	0.98463416
153	0x3f84193f	1.0320204
154	0x3f8218a7	1.0163773
155	0x3f78ef00	0.97239685
156	0x3f7c07ce	0.9844941
157	0x3f7acb06	0.9796604
158	0x3f7f8bb4	0.99822545
159	0x3f7ce6a7	0.9878945
160	0x3f839175	1.0278765
161	0x3f80dcf0	1.0067425
162	0x3f752801	0.95764166
163	0x3f8989b8	1.0745153
164	0x3f79d25a	0.97586596
165	0x3f7e34f5	0.99299556
166	0x3f8290be	1.0200422
167	0x3f7805d9	0.9688392
168	0x3f83edca	1.0306942
169	0x3f81ccdf	1.0140647
170	0x3f834dfd	1.0258175
171	0x3f7fa0fa	0.99855006
172	0x3f81806f	1.011732
173	0x3f788a8b	0.970864
174	0x3f79b4ac	0.9754131
175	0x3f79761f	0.97445863
176	0x3f8293fa	1.0201409
177	0x3f82cca3	1.02187
178	0x3f7a4804	0.9776614
179	0x3f7fe534	0.9995911
180	0x3f823e39	1.0175239
181	0x3f82f904	1.0232244
182	0x3f83e4df	1.0304221
183	0x3f7cf078	0.98804426
184	0x3f810674	1.0080094
185	0x3f807359	1.0035201
186	0x3f736981	0.9508286
187	0x3f785899	0.9701019
188	0x3f7e6879	0.9937816
189	0x3f798b57	0.9747824
190	0x3f8155df	1.0104331
191	0x3f77dfe2	0.96825993
192	0x3f84643b	1.0343088
193	0x3f80ca81	1.0061799
194	0x3f80c0c1	1.0058824
195	0x3f843243	1.0327839
196	0x3f790754	0.97276807
197	0x3f76ca2d	0.96402246
198	0x3f7cfc76	0.98822725
199	0x3f7cfd0f	0.98823637

bias f4 [200]
0	0xbca6c484	-0.020357378
1	0xbb5e1de8	-0.0033892337
2	0xbca2e644	-0.01988519
3	0x3cc2fc03	0.02380181
4	0x3cb73278	0.022362933
5	0xbbe90988	-0.007111732
6	0x3b1f53bd	0.0024311387
7	0xbd10c8ad	-0.03534763
8	0x3b9e3812	0.0048284614
9	0x3cf99f4e	0.03047147
10	0x3c27287e	0.010202525
11	0x3c9b4c6c	0.01895734
12	0x3d05c6ef	0.03266042
13	0xba0bffcc	-0.0005340546
14	0x3bd2ca0f	0.0064327787
15	0x3c4552b9	0.012043648
16	0x3d5e54d2	0.05428011
17	0x3bbd2c31	0.0057730903
18	0xbbb274d2	-0.005446055
19	0x3ca781c8	0.020447627
20	0x3d3cc8cd	0.046089936
21	0x3c01ba72	0.007917987
22	0x3cc9bc23	0.024625843
23	0x3ca4c113	0.020111596
24	0x3c39f11e	0.011348991
25	0xbbff21f1	-0.0077860286
26	0x3c6920e3	0.014229032
27	0x3ce87598	0.028376386
28	0x3ce467db	0.027881553
29	0x3cd85f63	0.026412671
30	0x3d3d85c1	0.046270136
31	0xbc99321f	-0.018700657
32	0x3c326b04	0.010889772
33	0xbc9713ea	-0.018442113
34	0x3d0d3d96	0.03448256
35	0x3b010a75	0.001969007
36	0x3c08a1d7	0.008339367
37	0xbae8de60	-0.0017766468
38	0xbd04ff38	-0.032469958
39	0x3c1fe6e9	0.009759643
40	0xbd257267	-0.040392306
41	0x3c89dde2	0.016829435
42	0xbd2e7570	-0.042592466
43	0x3cbc66a1	0.022998156
44	0x3c5494c6	0.0129749235
45	0x3b06c266	0.0020562648
46	0xbc2ffdb2	-0.010741638
47	0xbc0534fa	-0.008130306
48	0xbc81a5bd	-0.0158261
49	0x3d341cad	0.04397266
50	0x3ceeb94e	0.029141095
51	0xbbc0c8c1	-0.0058833067
52	0xbd29cd3a	-0.041455485
53	0x3d39508f	0.045242842
54	0x3d14a97b	0.03629444
55	0x3c6a5a4a	0.014303753
56	0x3bfe10d1	0.0077534695
57	0xbc63118d	-0.013859165
58	0x3d0cda57	0.034387913
59	0x3c2e7907	0.010648972
60	0x3d27581e	0.04085552
61	0x3c2ffcbc	0.010741409
62	0x3c7529c9	0.014963576
63	0xbcce815e	-0.025208171
64	0xbc78a32c	-0.015175622
65	0xbc20f83c	-0.009824809
66	0x3cc237aa	0.023708183
67	0xbb1acf78	-0.0023622196
68	0x3b62e1f5	0.0034619544
69	0xbd2e2eab	-0.042524975
70	0x3c7378df	0.014860361
71	0x3c9bd98a	0.01902463
72	0x3c91d076	0.017799597
73	0x3d5a328e	0.05327087
74	0xbbd127a1	-0.006382898
75	0xbd165fac	-0.036712334
76	0x3b9daf4a	0.004812156
77	0x3d153004	0.036422744
78	0x3d2a87c4	0.041633382
79	0x3ca9c82f	0.020725338
80	0xbcdff39f	-0.027337847
81	0x3c3beaef	0.011469587
82	0x3ce0a9ce	0.02742472
83	0xbd15ea75	-0.03660055
84	0x3db79ac8	0.08965069
85	0x3bfea43c	0.007771043
86	0x3d8c17c7	0.06840473
87	0x3d00b9b6	0.031427108
88	0x3c0697b7	0.008214883
89	0xbca36edc	-0.019950323
90	0xbc24c61a	-0.010056997
91	0x3d45d1de	0.048295848
92	0xbb1d2cd2	-0.0023983014
93	0x3d27cbaa	0.040965714
94	0x3cd6e746	0.026233327
95	0x3cf3acef	0.029745547
96	0x3cb623ca	0.022233862
97	0x3b9f494c	0.0048610326
98	0xbb170bb7	-0.0023047754
99	0x3c8d8ce2	0.017279092
100	0x3d885652	0.06657089
101	0x3c5f145e	0.013615696
102	0xbc9c7c67	-0.019102288
103	0xbc0a422a	-0.008438626
104	0xbc95e8c6	-0.018299472
105	0x3c653293	0.013989109
106	0xbceef7e0	-0.02917093
107	0x3c802671	0.01564333
108	0xbbb5a38a	-0.005543177
109	0x3c518040	0.012786925
110	0xbbfefd49	-0.007781659
111	0xbbabf473	-0.0052476465
112	0x3a54e8f8	0.0008121873
113	0x3885fb1a	6.3887055e-05
114	0x3cea702d	0.028617943
115	0x3ce11df2	0.0274801
116	0x3c951234	0.018197156
117	0xbc6dcfd5	-0.014514883
118	0xbceaa80b	-0.028644582
119	0xbcf08ba0	-0.029363453
120	0x3d068c2c	0.032848522
121	0x3afc3dff	0.001924455
122	0x3cae3163	0.021263784
123	0xbc74be5a	-0.0149379615
124	0xbcace106	-0.021103393
125	0x3be9ebbd	0.007138698
126	0x3bcf5606	0.0063273935
127	0x3d1496b6	0.03627654
128	0xbc544f55	-0.012958367
129	0x3a8a63ee	0.0010558346
130	0x3c3915d7	0.011296711
131	0x3d0e42cd	0.034731675
132	0xbbe30808	-0.0069284476
133	0x3ad50ca7	0.0016254381
134	0x3d7dd24b	0.06196813
135	0xb99897d8	-0.00029104832
136	0xbc2b272e	-0.010446353
137	0x3ce659ac	0.02811893
138	0x3daa7e8d	0.08324919
139	0xbd242205	-0.040071506
140	0xbca7c5bc	-0.02048003
141	0x3bb228b6	0.005436982
142	0x3c6481be	0.013946949
143	0x3d94ab40	0.07259226
144	0x3ca5caad	0.020238245
145	0xbd0eb01d	-0.034835923
146	0xbb04e6b2	-0.0020279107
147	0x3d02adb0	0.031903923
148	0x3c3592f4	0.0110824
149	0xbc324db5	-0.010882785
150	0xbd318fd0	-0.04335004
151	0xbcdace10	-0.026709586
152	0x3d246bf7	0.040142026
153	0xbc54858a	-0.012971291
154	0xbc809fdb	-0.015701225
155	0x3c02c78a	0.007982144
156	0x3d10748b	0.035267394
157	0xbc806226	-0.0156718
158	0x3c53b163	0.01292071
159	0x3c336919	0.01095035
160	0xbc8a7966	-0.01690359
161	0xbc979162	-0.018501941
162	0xbb0f14f6	-0.0021832562
163	0x3d2fe95d	0.042947162
164	0x3cc3e803	0.023914343
165	0x3cba16d4	0.022715963
166	0x3c8b5a0c	0.017010711
167	0x3cc73e06	0.024321567
168	0x3c5edca4	0.0136024095
169	0x3ca177cb	0.019710442
170	0xbc569f68	-0.013099529
171	0xbc8971c2	-0.016777877
172	0xbd428a99	-0.04749546
173	0xbb386882	-0.0028138463
174	0x3c4329b7	0.011911801
175	0x3ae43780	0.001741156
176	0x3d43f1d1	0.047838036
177	0x3baea183	0.0053293123
178	0x3cdcde9d	0.026961619
179	0x3bfa8047	0.0076446864
180	0xbb24dd89	-0.002515646
181	0xbcc4c8a5	-0.024021456
182	0xbb2dd953	-0.002652724
183	0xbc82f547	-0.015986098
184	0xbb5cdea7	-0.0033702047
185	0x3cfe0db3	0.031012392
186	0x3cf4c7b5	0.029880384
187	0x3cfc540f	0.030801801
188	0x3ce2095f	0.02759236
189	0x3d52b65c	0.051443443
190	0x3d38bd74	0.04510255
191	0x3cb46735	0.02202187
192	0x3cb5eaf1	0.022206755
193	0x3d02dbc6	0.031947874
194	0xb89f65d9	-7.6006814e-05
195	0x3c83fbaa	0.016111214
196	0x3d39809c	0.045288667
197	0x3c8732ce	0.016503718
198	0xbc8c80b9	-0.017151223
199	0x3ae77eed	0.0017661728

running_mean f4 [200]
0	0x3ed44312	0.4145742
1	0x3e0461dd	0.12927957
2	0x3e333917	0.17502247
3	0x3e837217	0.2567298
4	0x3e9da19e	0.30787367
5	0x3e70d463	0.23518519
6	0x3ce88ecd	0.028388405
7	0x3dd9178b	0.106001936
8	0x3ee9a84c	0.45636213
9	0x3e1215c8	0.14266121
10	0x3e24f453	0.16108827
11	0x3e4606d1	0.19338538
12	0x3e9c8d8f	0.3057675
13	0x3d4d2671	0.05008549
14	0x3e3aafd8	0.18231142
15	0x3ddbefc6	0.107390925
16	0x3e58f1c6	0.21185979
17	0x3e930207	0.28712484
18	0x3ed52ebc	0.41637218
19	0x3e065659	0.13118877
20	0x3ea1342e	0.31485122
21	0x3dcf256a	0.10114558
22	0x3eb505ef	0.3535609
23	0x3e9e19bb	0.30879006
24	0x3e72c8a2	0.23709348
25	0x3e2e27ff	0.17007445
26	0x3f0b21b4	0.543483
27	0x3d5e16f9	0.054221127
28	0x3e7da569	0.2477013
29	0x3da99854	0.082810074
30	0x3dc293e0	0.09500861
31	0x3eb5e1f2	0.35523945
32	0x3e17144d	0.14753838
33	0x3d807b42	0.062735096
34	0x3e5a358c	0.21309489
35	0x3eaf13ae	0.34194702
36	0x3e011511	0.12605692
37	0x3ed8bef8	0.42333198
38	0x3e561ee9	0.20910229
39	0x3dcfbf3c	0.10143897
40	0x3eddccda	0.43320352
41	0x3db790ca	0.08963163
42	0x3de6ccf3	0.1126956
43	0x3e236809	0.15957655
44	0x3db167ad	0.08662353
45	0x3e812b00	0.2522812
46	0x3e00addf	0.12566327
47	0x3e4ca14a	0.19983402
48	0x3ee0acfb	0.43881974
49	0x3eabe39f	0.335721
50	0x3ed0f70e	0.40813488
51	0x3e047c91	0.12938143
52	0x3d61c537	0.05511972
53	0x3de0d02f	0.10977208
54	0x3e30023f	0.17188357
55	0x3e25aa3d	0.16178222
56	0x3ef31e4e	0.47484058
57	0x3e50226e	0.20325634
58	0x3e12e406	0.14344797
59	0x3e36c497	0.1784843
60	0x3e26ffa2	0.16308454
61	0x3e5f2d59	0.21794643
62	0x3d825120	0.063631296
63	0x3d922988	0.07136828
64	0x3efe3fd9	0.49658087
65	0x3e2327fe	0.15933225
66	0x3e0c68d5	0.13711865
67	0x3dd32329	0.10309441
68	0x3f091e2d	0.5356167
69	0x3eabb15e	0.33533758
70	0x3dc9df7a	0.09857078
71	0x3e21c0fd	0.15796275
72	0x3de5a446	0.11212973
73	0x3e18f15a	0.14935818
74	0x3e842aab	0.25813803
75	0x3e491b6a	0.19639364
76	0x3e81f9c8	0.2538588
77	0x3e1ca9a6	0.1529909
78	0x3eb6cce1	0.35703185
79	0x3d768ece	0.060194783
80	0x3e4b33de	0.19844005
81	0x3e917daf	0.284162
82	0x3e32e218	0.1746906
83	0x3e57c098	0.21069562
84	0x3efada5a	0.48994714
85	0x3e9b21aa	0.3029912
86	0x3e137688	0.14400685
87	0x3dff32fb	0.12460896
88	0x3dab06d0	0.08350909
89	0x3e6b659e	0.22987983
90	0x3e4ee82e	0.20205757
91	0x3e19d8af	0.15024064
92	0x3e3d2bae	0.18473694
93	0x3eeda828	0.46417356
94	0x3eee2f2d	0.46520367
95	0x3f006fca	0.50170577
96	0x3ea708de	0.32623953
97	0x3e392cd7	0.18083511
98	0x3e13be8d	0.14428158
99	0x3e7eee22	0.24895528
100	0x3e816a42	0.2527638
101	0x3f0dc164	0.55373216
102	0x3ea5be60	0.32371807
103	0x3da25e35	0.07928125
104	0x3e72962a	0.23690096
105	0x3e75d243	0.2400599
106	0x3e181158	0.14850366
107	0x3e4c1980	0.19931602
108	0x3dd8dc0d	0.10588846
109	0x3e12f9bb	0.14353077
110	0x3e5e9885	0.21737869
111	0x3eab8be4	0.33505166
112	0x3ed5dd60	0.41770458
113	0x3e901031	0.28137353
114	0x3ea4d9f9	0.3219755
115	0x3e968232	0.29396206
116	0x3e0a472b	0.13503711
117	0x3e7df57d	0.24800678
118	0x3d8e6f4f	0.06954824
119	0x3e8f484d	0.2798485
120	0x3e57a1ef	0.21057867
121	0x3e62b7c7	0.22140418
122	0x3db31ff9	0.08746333
123	0x3eb7712b	0.35828528
124	0x3eb3a3be	0.35085863
125	0x3dee6b3d	0.11641548
126	0x3ebbacbf	0.36655232
127	0x3d98399a	0.074328616
128	0x3e09f0f0	0.13470817
129	0x3d0391e8	0.03212157
130	0x3d8db980	0.06920147
131	0x3de5dc9c	0.112237185
132	0x3eecccee	0.462501
133	0x3e97477e	0.29546732
134	0x3e0269b1	0.1273563
135	0x3e9b9f76	0.30395097
136	0x3e805add	0.25069323
137	0x3f244dd4	0.64181256
138	0x3e9f9e3a	0.31175405
139	0x3e099ee1	0.13439514
140	0x3e46b75e	0.19405887
141	0x3eba49a7	0.36384317
142	0x3edcee7d	0.43150702
143	0x3e53b415	0.20674165
144	0x3ec7c272	0.39015538
145	0x3e48e709	0.19619383
146	0x3e4a4a0b	0.19754808
147	0x3e747f36	0.23876652
148	0x3e0d658c	0.13808268
149	0x3e42bc6a	0.19017187
150	0x3e282eca	0.16424099
151	0x3dd602bd	0.10449741
152	0x3e8729fc	0.2639922
153	0x3f00984f	0.50232404
154	0x3e9d4f36	0.30724496
155	0x3eb04280	0.34425735
156	0x3e2de998	0.1698364
157	0x3dc0fe19	0.09423465
158	0x3d20b0ab	0.039230984
159	0x3e353f6c	0.17699975
160	0x3d6a0eba	0.05714295
161	0x3e79042d	0.24317999
162	0x3e263b06	0.16233453
163	0x3ddedbc0	0.10881758
164	0x3e3e892a	0.18607011
165	0x3d884664	0.06654051
166	0x3e576194	0.21033317
167	0x3ed9a2fb	0.42507157
168	0x3e686271	0.22693802
169	0x3d161266	0.03663864
170	0x3e7dbefd	0.24779887
171	0x3e65ebae	0.22453186
172	0x3da74b37	0.08168643
173	0x3e5bce8d	0.21465512
174	0x3e974bdb	0.2955006
175	0x3e9d3102	0.30701452
176	0x3e1d44b4	0.1535824
177	0x3e9d2bad	0.30697384
178	0x3e4b556d	0.19856806
179	0x3eaf837f	0.3428001
180	0x3df9d612	0.12199034
181	0x3de2f218	0.11081332
182	0x3eb1118e	0.34583706
183	0x3d9263c6	0.071479365
184	0x3e04f85a	0.12985364
185	0x3d8c3349	0.06845719
186	0x3e1397c3	0.14413361
187	0x3e4cab73	0.19987278
188	0x3e814ba2	0.25253016
189	0x3ee41657	0.44548294
190	0x3e1252f3	0.14289455
191	0x3ea05d9e	0.31321424
192	0x3e8c4363	0.27395162
193	0x3df66469	0.120308705
194	0x3e67de4a	0.2264339
195	0x3e6c32b7	0.23066221
196	0x3eabb00c	0.3353275
197	0x3da5492b	0.08070596
198	0x3e00fbe2	0.12596086
199	0x3e4f0481	0.20216562

running_var f4 [200]
0	0x3eb22dda	0.34800607
1	0x3d4716d1	0.048605744
2	0x3d8cf974	0.06883517
3	0x3e019c1a	0.12657204
4	0x3e5302a5	0.20606478
5	0x3e0d58fe	0.13803479
6	0x3c39a68c	0.011331212
7	0x3cd96cfd	0.026541227
8	0x3eb5aad9	0.3548191
9	0x3d60f96b	0.054925364
10	0x3d542b80	0.051799297
11	0x3d727ef2	0.059203096
12	0x3e084e6d	0.13311167
13	0x3ca0064f	0.019534258
14	0x3d86dcfd	0.06585119
15	0x3d03f416	0.0322152
16	0x3d942778	0.072340906
17	0x3e60e58d	0.21962567
18	0x3ebe1df0	0.37132215
19	0x3d40ff01	0.04711819
20	0x3e56b501	0.20967485
21	0x3ccdbb50	0.025113732
22	0x3e141df6	0.14464554
23	0x3e50a8dd	0.20376916
24	0x3df84150	0.12121832
25	0x3da8424c	0.0821577
26	0x3f06b512	0.5262004
27	0x3c738e0d	0.0148654105
28	0x3e147a06	0.14499673
29	0x3c984130	0.018585771
30	0x3ce2bedd	0.027678901
31	0x3e63b15a	0.22235623
32	0x3d551d60	0.052029967
33	0x3c8a4278	0.016877398
34	0x3d87ec56	0.066368744
35	0x3e8d2b76	0.2757222
36	0x3d2206e3	0.03955735
37	0x3e999f07	0.3000414
38	0x3dccb124	0.099947244
39	0x3d01445d	0.031559337
40	0x3eacbd08	0.3373797
41	0x3cb5f6ff	0.022212503
42	0x3d03be61	0.03216398
43	0x3d764ceb	0.06013195
44	0x3cdd5b6e	0.027021136
45	0x3da8fa2b	0.08250841
46	0x3d4aeb30	0.0495407
47	0x3dc54528	0.09632331
48	0x3eb32042	0.34985548
49	0x3e5f15e6	0.21785697
50	0x3eaf4e99	0.34239653
51	0x3d373c13	0.044735026
52	0x3c8ce5dd	0.017199451
53	0x3cb7197d	0.022351021
54	0x3d85872c	0.065199226
55	0x3da47a6e	0.08031164
56	0x3edd6d77	0.43247578
57	0x3d839cf5	0.064264216
58	0x3d9c7f49	0.07641465
59	0x3d548e87	0.051893737
60	0x3da6793d	0.08128593
61	0x3dcb732d	0.099340774
62	0x3c76c9fc	0.015062805
63	0x3c9e68a9	0.019337015
64	0x3ef1a870	0.4719882
65	0x3d9e72fd	0.07736776
66	0x3d02eb7f	0.031962868
67	0x3d178ecd	0.03700142
68	0x3f058a37	0.52164024
69	0x3e204590	0.15651536
70	0x3cd0a35c	0.02546852
71	0x3d88a3b5	0.0667185
72	0x3cf3be33	0.02975378
73	0x3d4a9dd2	0.049466915
74	0x3dda3d29	0.106561966
75	0x3da42cb1	0.08016337
76	0x3da2d0d1	0.07949985
77	0x3d578df4	0.05262561
78	0x3e2766e4	0.16347843
79	0x3c6f2505	0.0145962285
80	0x3da8d7a1	0.08244253
81	0x3e566b60	0.20939398
82	0x3d641fd1	0.055694405
83	0x3de8558f	0.11344444
84	0x3f02794a	0.5096632
85	0x3dd9bf17	0.106321506
86	0x3d70e169	0.058808718
87	0x3cf06267	0.029343797
88	0x3cd96dec	0.026541673
89	0x3dee5d88	0.116389334
90	0x3dad0ba3	0.08449485
91	0x3dab93ab	0.08377775
92	0x3d835789	0.064131804
93	0x3ebb546d	0.3658785
94	0x3ee90c66	0.45517272
95	0x3eb7bf9f	0.35888383
96	0x3e818f19	0.25304487
97	0x3d9ab8c3	0.07554772
98	0x3d37b3bb	0.04484914
99	0x3de263a0	0.11054158
100	0x3e04fb75	0.12986548
101	0x3eb004a0	0.3437853
102	0x3e5b886e	0.21438763
103	0x3cc6ee30	0.024283499
104	0x3daac136	0.08337633
105	0x3d87c992	0.06630243
106	0x3d48bf44	0.04901053
107	0x3daecc5b	0.085350715
108	0x3cf85064	0.03031177
109	0x3d6715b5	0.056417186
110	0x3dc5bb97	0.096549205
111	0x3e6b9d31	0.23009183
112	0x3e3ac97d	0.18240924
113	0x3e3c378b	0.18380563
114	0x3e5a8d0c	0.21342868
115	0x3e20b675	0.15694602
116	0x3d811288	0.06302363
117	0x3dad5d6d	0.08465085
118	0x3c8705c3	0.01648224
119	0x3e1b95c8	0.15193856
120	0x3dac86b6	0.084241316
121	0x3e005f36	0.1253632
122	0x3ca58fff	0.020210264
123	0x3e242cd0	0.1603272
124	0x3e13c1ab	0.14429347
125	0x3d427065	0.04747047
126	0x3e365d94	0.17809135
127	0x3cc616dd	0.024180824
128	0x3cfa014c	0.030518197
129	0x3c348af9	0.011019462
130	0x3caa4e05	0.020789156
131	0x3d127c7d	0.035763253
132	0x3e73cf92	0.2380965
133	0x3e2328fb	0.15933602
134	0x3d2980e4	0.041382685
135	0x3e35f11e	0.1776776
136	0x3e20e253	0.15711336
137	0x3f514854	0.8175099
138	0x3e1ad616	0.1512073
139	0x3cddd13e	0.027077314
140	0x3d9d9e7a	0.07696243
141	0x3e8fd4f5	0.2809216
142	0x3ebc3767	0.3676102
143	0x3d7f8659	0.062383983
144	0x3e26330d	0.16230412
145	0x3d9e19c3	0.077197574
146	0x3d42e0bc	0.047577605
147	0x3e1b515c	0.15167755
148	0x3d4c78eb	0.049920004
149	0x3defd42b	0.1171039
150	0x3d5bab42	0.05363012
151	0x3cfe8998	0.03107147
152	0x3e026c1f	0.12736557
153	0x3eac43a4	0.33645356
154	0x3e22b71f	0.15890168
155	0x3e87f805	0.2655641
156	0x3d7b6c74	0.061382726
157	0x3cc8b28c	0.0244992
158	0x3c790d90	0.015200987
159	0x3d8eea28	0.069782555
160	0x3c6c058f	0.014405622
161	0x3dfa1374	0.12210742
162	0x3d64531a	0.055743314
163	0x3cda2e08	0.026633278
164	0x3db80d41	0.08986903
165	0x3c974451	0.018465193
166	0x3decc458	0.11560887
167	0x3ebd769b	0.3700455
168	0x3dca3e2c	0.098751396
169	0x3c40407e	0.011734126
170	0x3dd0ca56	0.101948425
171	0x3e05a312	0.13050488
172	0x3cf9ad14	0.030478038
173	0x3e183a93	0.14866094
174	0x3dedaeb0	0.116055846
175	0x3e3e6449	0.18592943
176	0x3d405c52	0.046963044
177	0x3e4b2b91	0.19840838
178	0x3db659c7	0.089038424
179	0x3e4270ca	0.18988338
180	0x3d2cfbeb	0.042232435
181	0x3d04409c	0.03228818
182	0x3e197c20	0.14988756
183	0x3c914bba	0.017736305
184	0x3d3c1d7e	0.045926563
185	0x3c92cbd4	0.017919458
186	0x3d948d21	0.07253481
187	0x3d95c73b	0.07313391
188	0x3e2a478f	0.1662886
189	0x3ecbcec9	0.39806202
190	0x3d42ea22	0.047586568
191	0x3de2832e	0.11060177
192	0x3e0b78da	0.1362032
193	0x3d6c81c5	0.057740945
194	0x3de470f0	0.111543536
195	0x3de777cb	0.113021456
196	0x3e476031	0.19470288
197	0x3cbcb4fd	0.02303552
198	0x3d49930e	0.049212508
199	0x3daa95a2	0.083293214

weight f4 [100, 200]
0	0x3b25714e	0.0025244537
1	0xbd925a99	-0.071461864
2	0x3cc98ba9	0.024602728
3	0xbda42d90	-0.08016503
4	0xbcfa55ef	-0.030558554
5	0x3daf36fe	0.08555411
6	0x3cad5400	0.021158218
7	0xbd9a176d	-0.07523999
8	0xbc8efc82	-0.01745439
9	0xbc2da0ea	-0.010597447
10	0xbd8c029a	-0.06836434
11	0xbd282182	-0.04104758
12	0x3b5cd702	0.003369749
13	0xbccfc922	-0.025364462
14	0xbc8a2c63	-0.016866868
15	0x3d0e08be	0.034676306
16	0xbb545e74	-0.0032404931
17	0x3cce81d4	0.025208391
18	0x3c064755	0.008195718
19	0x3d04826f	0.032350954
20	0x3d26d460	0.04072988
21	0xbd530b60	-0.05152452
22	0x3d3903e1	0.045169715
23	0xbd571180	-0.052506924
24	0xbd1aa93d	-0.037759054
25	0x3ad939b2	0.0016572981
26	0xbcf3e590	-0.02977255
27	0xbd82aaef	-0.06380259
28	0xbc70ae82	-0.014690043
29	0xbd4d81e5	-0.050172705
30	0x3d95cf30	0.073149085
31	0xbd3487eb	-0.044074934
32	0x3c1d34ab	0.009595077
33	0xbd5cb5b3	-0.05388422
34	0xbd59e686	-0.05319836
35	0x3d5accfa	0.053418137
36	0xbcb5d942	-0.022198323
37	0xbd6f9e32	-0.058500476
38	0xbd6cd651	-0.057821576
39	0x3d43d415	0.04780968
40	0xbd319b39	-0.043360922
41	0x3c920bd7	0.017827911
42	0xbcf4ffaa	-0.029907066
43	0x3d8102b2	0.06299342
44	0x3c705c9d	0.014670518
45	0xbc122215	-0.008919259
46	0x3c5844a7	0.013199962
47	0x3cc0e734	0.023547746
48	0xbce5a3d9	-0.02803223
49	0xbc8657d4	-0.016399302
50	0xbcf34bc1	-0.029699208
51	0x3c74be2a	0.014937917
52	0x3bd5d98c	0.0065261777
53	0xbc889d7f	-0.016676662
54	0xbbf8d6d0	-0.007593967
55	0xbda1b98c	-0.078967184
56	0xbcf55f50	-0.029952675
57	0xbd533a1c	-0.05156909
58	0x3cb4f011	0.022087129
59	0xbd1665b6	-0.036718093
60	0x3c6d59df	0.014486759
61	0x3daf7697	0.08567541
62	0xbc593bd9	-0.013258898
63	0x3d49ab3b	0.049235564
64	0x3d18c66e	0.037298612
65	0xbd3a4fb0	-0.045486152
66	0x3cf4fc89	0.029905574
67	0xbd3413f5	-0.043964345
68	0xbd1cc45e	-0.038273208
69	0x3d3a1571	0.045430604
70	0x3c46d1ab	0.01213495
71	0xbd14297d	-0.03617238
72	0xbdcb238e	-0.09918891
73	0xbcdc2d3a	-0.026877034
74	0x3ca8e21d	0.020615632
75	0xbc92e165	-0.017929742
76	0x3d900c95	0.0703365
77	0x3d28ab3f	0.041178938
78	0xbcde57bd	-0.027141446
79	0xbd3d034b	-0.04614572
80	0xbd7c7d76	-0.061643086
81	0xbd303000	-0.043014526
82	0xbd9eaa17	-0.07747286
83	0x3dc9d424	0.09854916
84	0x3d5a36c0	0.05327487
85	0x3ce4793b	0.027889838
86	0x3c2dc2d7	0.0106055355
87	0xbdabf7fd	-0.083969094
88	0x3bb8ae94	0.0056360457
89	0x3d0e52c1	0.03474689
90	0xbd8f683c	-0.07002303
91	0x3da23264	0.079197675
92	0xbc2d701d	-0.010585812
93	0x3ca6c7d6	0.020358961
94	0xbc5f4ea6	-0.013629591
95	0x3d62ec3f	0.055401083
96	0xbd3ccbab	-0.04609267
97	0xbd09c8a4	-0.03363861
98	0xbbdb7b4e	-0.0066980487
99	0x3d5f4fff	0.05451965
100	0x3db356cc	0.087567896
101	0x3daaac3b	0.083336316
102	0x3d0920a8	0.03347841
103	0x3d51c584	0.051213756
104	0x3d138a46	0.03602054
105	0x3bcf6b9b	0.0063299662
106	0xbd66a189	-0.056306396
107	0xbd6ab560	-0.05730188
108	0xbcd480e0	-0.025940359
109	0xbcf5d7ac	-0.030010067
110	0x3bdd921e	0.0067618033
111	0xbbf12ccc	-0.0073600765
112	0x3cad2de4	0.021140046
113	0x3d336d57	0.043805446
114	0x3cdb22da	0.026750017
115	0xbbf5fb46	-0.007506761
116	0xbdb3ddbc	-0.08782527
117	0xbda2042e	-0.079109535
118	0x3d819287	0.06326776
119	0xbcaf8cd9	-0.021429466
120	0x3b8235cf	0.0039736996
121	0xbd830d0c	-0.06398973
122	0xbd62df34	-0.055388644
123	0x3d84486e	0.06459127
124	0x3d03d997	0.03218993
125	0xbdc8df64	-0.098082334
126	0x3d560e60	0.052259803
127	0xbdc326b2	-0.09528865
128	0x3d0938e5	0.033501524
129	0x3c85176c	0.01624652
130	0x3dc1378c	0.09434423
131	0xbd97e384	-0.07416442
132	0xbd850807	-0.06495672
133	0x3c7e516a	0.01552234
134	0x3cf96f43	0.030448562
135	0x3c6abbb6	0.01432698
136	0x3c8aee04	0.016959198
137	0xbdba0b39	-0.09084172
138	0x3da2cb81	0.079489715
139	0xbdaa7feb	-0.0832518
140	0xbc4fcf87	-0.012683756
141	0xbd9f5d3e	-0.077814564
142	0xbc67b61f	-0.014142542
143	0x3c4eeb72	0.012629377
144	0xbd1dbade	-0.03850829
145	0xbd0b94ad	-0.034077335
146	0xbd8131aa	-0.06308301
147	0xbdbc9ca5	-0.09209565
148	0xbb38a376	-0.0028173602
149	0xbd2be4bf	-0.041966196
150	0xbd8ec964	-0.06972006
151	0xbd805d51	-0.06267799
152	0xbdb10252	-0.08643021
153	0xbd10c265	-0.03534164
154	0x3d864dce	0.06557809
155	0x3b951c58	0.004550498
156	0x3bd56ea6	0.0065134345
157	0xbd88f0d6	-0.06686561
158	0x3d5a0979	0.05323169
159	0xbcf99ca2	-0.030470196
160	0xbd9912ec	-0.07474312
161	0xbc886d83	-0.016653782
162	0x3cf56a2b	0.029957851
163	0xbd35d151	-0.044389073
164	0xbdcc896b	-0.09987148
165	0xbd212aac	-0.039347336
166	0x3d484f57	0.04890379
167	0xbd9e1bf9	-0.07720179
168	0x39344a92	0.00017193917
169	0x3d0c86d4	0.03430827
170	0x3d48debd	0.049040545
171	0xbc8debc2	-0.017324332
172	0x3dd616a1	0.10453535
173	0x3cb00401	0.021486284
174	0xbc819f8d	-0.01582315
175	0xbcccf0e8	-0.025017217
176	0xbca55cfe	-0.020185944
177	0x3d0d451c	0.034489736
178	0xbdc5bb09	-0.09654815
179	0x3d48c16a	0.04901258
180	0x3c5e0af1	0.013552413
181	0xbdcd21bb	-0.10016199
182	0x3d2f79fb	0.04284094
183	0xbd9d3e3a	-0.076778844
184	0xbcbc8203	-0.023011213
185	0xbd9c1b2a	-0.07622369
186	0xbcd8388c	-0.026394151
187	0xbd12f815	-0.03588112
188	0x3b3e7b77	0.002906529
189	0x3c1019f0	0.0087952465
190	0xbcb59c65	-0.022169301
191	0x3d967b59	0.073477454
192	0xbcaabbd8	-0.020841524
193	0x3b59cd3c	0.0033233901
194	0x3d966fc5	0.07345537
195	0xbcd65c42	-0.026167039
196	0xbc96c4ff	-0.018404482
197	0xbc601675	-0.013677229
198	0x3d18f254	0.037340477
199	0xbd2ef0db	-0.042710166
200	0xbcec8da2	-0.02887613
201	0xbcd45610	-0.025919944
202	0xbc456853	-0.012048799
203	0xbdb4173e	-0.087934956
204	0xbd28fa84	-0.041254535
205	0x3d787268	0.06065598
206	0x3cceee7a	0.025260199
207	0xbc638986	-0.013887769
208	0xbd08a651	-0.033361737
209	0x3bcd2773	0.006260806
210	0xbbdd6743	-0.0067566945
211	0x3d41ef4d	0.047347356
212	0x3d8f7f00	0.07006645
213	0xbc959b0c	-0.018262409
214	0xbcdf2c5b	-0.02724283
215	0x3d5f64d8	0.05453953
216	0x3dc0a302	0.09406091
217	0xbc9bba82	-0.019009832
218	0xbc452544	-0.012032811
219	0x3ba8f60d	0.0051562847
220	0xb9f825be	-0.00047330366
221	0xbd7e375b	-0.06206451
222	0xbbe1d3ce	-0.006891704
223	0x3c1d9b8d	0.009619606
224	0xbd26c232	-0.040712543
225	0xbd80b61a	-0.06284733
226	0xbd7f13ac	-0.06227462
227	0x3d722be1	0.059123877
228	0xbd491179	-0.04908893
229	0x3da4a8b3	0.08039989
230	0x3da69276	0.08133404
231	0xbc8ccfd3	-0.017188942
232	0xbca81e40	-0.020522237
233	0xbbfa33d1	-0.0076355715
234	0x3cf8719b	0.030327609
235	0x3d28b64b	0.041189473
236	0xbd30e8a0	-0.0431906
237	0xbd21a51a	-0.039464094
238	0xbd8dff06	-0.069334075
239	0x3cb1090e	0.021610763
240	0xbd950a42	-0.07277347
241	0x3d1fd28f	0.039019164
242	0xbd47e3aa	-0.0488011
243	0xbce4ea7f	-0.027943848
244	0x3cd02d5f	0.02541226
245	0x3d3da66d	0.046301294
246	0x3d5a113f	0.053239103
247	0x3d775cfc	0.06039141
248	0xbdb76a52	-0.08955826
249	0x3c83850e	0.016054656
250	0xbcf665e7	-0.030077888
251	0xbbf65ec9	-0.0075186235
252	0x3d25cebc	0.04048036
253	0x3d9da710	0.0769788
254	0xbda96521	-0.08271242
255	0x3c588a12	0.013216512

weight f4 [100]
0	0x3f78a86e	0.97132003
1	0x3f8185ff	1.0119017
2	0x3f794c52	0.9738208
3	0x3f868c19	1.0511504
4	0x3f7a0463	0.97662944
5	0x3f886937	1.0657109
6	0x3f7d078a	0.9883963
7	0x3f7b6854	0.9820607
8	0x3f8abdb9	1.0839149
9	0x3f83c57e	1.0294645
10	0x3f839ec5	1.0282828
11	0x3f75a5eb	0.95956296
12	0x3f840d5a	1.0316575
13	0x3f82461c	1.0177646
14	0x3f849b22	1.0359843
15	0x3f819479	1.0123435
16	0x3f8006c3	1.0002064
17	0x3f86760b	1.0504774
18	0x3f803c74	1.0018449
19	0x3f7ef490	0.9959192
20	0x3f80cad6	1.0061901
21	0x3f866b18	1.0501432
22	0x3f82d668	1.0221682
23	0x3f845548	1.0338526
24	0x3f7df5f5	0.99203426
25	0x3f88ef47	1.0698022
26	0x3f84e1c0	1.0381393
27	0x3f7db795	0.9910825
28	0x3f8559a7	1.0417985
29	0x3f75cc70	0.9601507
30	0x3f7c6fb4	0.98607945
31	0x3f802815	1.0012232
32	0x3f8ba2f7	1.0909108
33	0x3f78cc40	0.9718666
34	0x3f8b6a79	1.0891868
35	0x3f847d58	1.0350752
36	0x3f84b4c7	1.0367669
37	0x3f86a79d	1.0519902
38	0x3f847775	1.0348955
39	0x3f763939	0.96181065
40	0x3f849450	1.0357761
41	0x3f7fc2c4	0.99906564
42	0x3f83b0ec	1.0288367
43	0x3f84c0fc	1.0371394
44	0x3f7df2d2	0.9919864
45	0x3f8672df	1.0503806
46	0x3f88b354	1.0679727
47	0x3f7f2e3a	0.9967991
48	0x3f8903b6	1.0704257
49	0x3f7898f1	0.9710837
50	0x3f7e6a47	0.99380916
51	0x3f87d83c	1.0612864
52	0x3f7984c1	0.9746819
53	0x3f8052b0	1.0025234
54	0x3f833472	1.025038
55	0x3f870f25	1.0551497
56	0x3f76ac5e	0.9635676
57	0x3f8684dc	1.0509295
58	0x3f8a4248	1.0801477
59	0x3f7c7e20	0.9862995
60	0x3f7e2d94	0.99288297
61	0x3f846c95	1.0345637
62	0x3f8368d4	1.0266366
63	0x3f83e831	1.0305234
64	0x3f812f52	1.0092566
65	0x3f8c2218	1.0947905
66	0x3f84f99b	1.0388674
67	0x3f85f619	1.0465728
68	0x3f8050bc	1.0024638
69	0x3f84e9e0	1.0383873
70	0x3f7f26c1	0.9966851
71	0x3f79c86a	0.9757143
72	0x3f831c0b	1.0242933
73	0x3f8546e5	1.041226
74	0x3f8539f8	1.0408316
75	0x3f8a1f36	1.0790775
76	0x3f7e67b4	0.9937699
77	0x3f7ca742	0.98692715
78	0x3f874943	1.0569233
79	0x3f80020b	1.0000623
80	0x3f79bdc4	0.97555184
81	0x3f83d66d	1.0299813
82	0x3f88e5d5	1.0695139
83	0x3f86ef9c	1.0541873
84	0x3f7ce512	0.98787034
85	0x3f872002	1.0556643
86	0x3f8607fe	1.0471189
87	0x3f8a0308	1.0782175
88	0x3f803644	1.001656
89	0x3f7e4754	0.9932759
90	0x3f82c93e	1.0217664
91	0x3f83fb6c	1.0311103
92	0x3f84490d	1.0334793
93	0x3f8b7a14	1.089663
94	0x3f836799	1.026599
95	0x3f87a23f	1.0596389
96	0x3f7985b6	0.9746965
97	0x3f8651f0	1.0493755
98	0x3f841012	1.0317404
99	0x3f86e3d2	1.0538275

bias f4 [100]
0	0x3d037dc1	0.03210235
1	0xba3e5cce	-0.0007261754
2	0x3d0e290a	0.034707107
3	0x3cdbd6e4	0.026835866
4	0x3cd0ec8e	0.025503423
5	0xbd0d046e	-0.034428053
6	0xbd099d44	-0.033597246
7	0x3d0e853f	0.034795042
8	0x3d01010c	0.03149514
9	0xbc2f7c1a	-0.01071074
10	0x3d1d543a	0.038410403
11	0x3d00d013	0.031448435
12	0xbce55844	-0.02799619
13	0x3cd09d82	0.02546573
14	0x3d0638cc	0.03276901
15	0xbd09a209	-0.033601794
16	0xbc9d7dfc	-0.019225113
17	0xbd0c0511	-0.03418452
18	0xbcf9493e	-0.030430432
19	0x3d1836dd	0.037161697
20	0xba0153ca	-0.0004933445
21	0x3d27c242	0.040956743
22	0xbcb245be	-0.021761771
23	0x3d1fbe98	0.039000124
24	0xbcef4cee	-0.029211488
25	0xbd310bde	-0.043224208
26	0xbce01f7d	-0.027358765
27	0x3d09e67c	0.033667073
28	0x3ad0b7b6	0.0015923891
29	0x3cc18bde	0.023626264
30	0x3cff3fc5	0.031158337
31	0xbd0358d7	-0.032067146
32	0x3d05fdfe	0.03271293
33	0x3cf80cbc	0.03027951
34	0x3d174afc	0.036936745
35	0xbd06e180	-0.032929897
36	0x3c3e35a5	0.01160947
37	0x3bebe897	0.0071993577
38	0xbcfc1621	-0.03077227
39	0x3cc4bb91	0.02401522
40	0x3c2a68c1	0.010400952
41	0xbce27d5c	-0.027647667
42	0x3d171a06	0.036890052
43	0x3d045dcc	0.032316014
44	0xbd0e0011	-0.034668032
45	0x3cd07cc5	0.02545012
46	0x3d379cc0	0.044827223
47	0x3cb3e5d3	0.021960175
48	0x3d3ce82f	0.046119865
49	0xbc846540	-0.016161561
50	0xbcb3ac5d	-0.021932775
51	0xbd2f83c0	-0.042850256
52	0x3c947d64	0.018126197
53	0xbb8d718c	-0.0043165144
54	0xbd06953b	-0.03285716
55	0x3d267b36	0.040644847
56	0x3c9a4d6d	0.018835748
57	0xbd2a8e90	-0.041639864
58	0x3d03ee46	0.032209657
59	0xbcc0dc9e	-0.023542698
60	0xbd154551	-0.03644306
61	0x3d2f6c1f	0.04282772
62	0xbc96feb5	-0.018432
63	0x3c9d9965	0.019238183
64	0x3d0ff6e7	0.035147574
65	0x3cf64a60	0.030064762
66	0xbca103e0	-0.019655168
67	0x3d0897b0	0.033347785
68	0x3cefcc10	0.02927211
69	0xbca44fb8	-0.020057544
70	0x3caeccdd	0.02133792
71	0x3c67a1e4	0.014137719
72	0xbd1e625a	-0.038668014
73	0x3d1daff2	0.038497873
74	0x3bdae4c3	0.0066801026
75	0xbd1f6173	-0.038911294
76	0xbc86aa0b	-0.016438505
77	0x3ca5fff6	0.020263653
78	0xbd0ec19f	-0.03485262
79	0xbd031aef	-0.032008108
80	0x3cf019b5	0.029309133
81	0xbc482dc5	-0.012217944
82	0xbd383d3f	-0.044980284
83	0x3d2e156f	0.04250091
84	0xbd177313	-0.036974978
85	0xbcc541c6	-0.024079215
86	0x3d32c3c9	0.043643747
87	0xbd2010e4	-0.03907861
88	0xbc9af99e	-0.018917855
89	0x3cdf7d53	0.027281439
90	0x3d3523c6	0.04422357
91	0x3cfc4aaa	0.030797321
92	0xbcc63626	-0.024195742
93	0xbd2aaa5c	-0.041666374
94	0xbd00c3f5	-0.03143688
95	0xbbf3dd5c	-0.0074421596
96	0x3ce02b7a	0.027364481
97	0xbbb985c8	-0.0056617
98	0x3c1ed7b2	0.00969498
99	0xbd1ac840	-0.03778863

running_mean f4 [100]
0	0x3f7d0089	0.9882894
1	0x3fc93dcd	1.5721985
2	0x3fa3edf9	1.2806998
3	0x3f9f3f42	1.244118
4	0x3fad4a77	1.353835
5	0x3fafe217	1.3740872
6	0x3efb49de	0.49079794
7	0x3fa34569	1.2755557
8	0x3f1a68ae	0.6031598
9	0x3f57cb1d	0.842943
10	0x3f811888	1.0085611
11	0x3f720ce6	0.9455093
12	0x3f953b31	1.1658689
13	0x3f6263fe	0.88433826
14	0x3fa42226	1.2822921
15	0x3fb7bb3c	1.4354014
16	0x3fe5ecc4	1.796288
17	0x3f707a1b	0.9393632
18	0x3f6abc60	0.9169369
19	0x3f8f2ee5	1.1186186
20	0x3fa8eea6	1.319783
21	0x3f550358	0.8320823
22	0x3f6eabbe	0.9323081
23	0x3f63d4a3	0.8899633
24	0x3fab3ae2	1.3377345
25	0x3fb562aa	1.4170735
26	0x3f551992	0.8324214
27	0x3fa90a8c	1.3206344
28	0x3faaf532	1.3356078
29	0x3ff694b8	1.9264135
30	0x3ea37de4	0.31931984
31	0x3f329cc6	0.6977047
32	0x3f33b170	0.70192623
33	0x3fa5b11e	1.2944677
34	0x3f3889ca	0.7208525
35	0x3fe21ec1	1.7665635
36	0x3f50444b	0.81354207
37	0x3fbe014c	1.4844146
38	0x3f48673e	0.78282535
39	0x3f6e301b	0.93042153
40	0x3f8f7d76	1.1210163
41	0x3fbad53f	1.4596328
42	0x3f172230	0.5903654
43	0x3f3e255c	0.74275756
44	0x3f710657	0.941503
45	0x3f34914c	0.70534205
46	0x3f16df13	0.58934134
47	0x3f33ab3c	0.7018316
48	0x3f8207f1	1.0158674
49	0x3f9bf174	1.2183061
50	0x3f8243d2	1.0176947
51	0x3f96ff02	1.1796572
52	0x3fada322	1.3565409
53	0x3f91a088	1.1377115
54	0x3f170def	0.59005636
55	0x3fc6b2ee	1.5523355
56	0x3fbde4a2	1.4835398
57	0x3fa1ffef	1.265623
58	0x3effa22e	0.4992842
59	0x3f1dcbc8	0.6163907
60	0x3fbd36c8	1.4782343
61	0x3f802ad0	1.0013065
62	0x3f83c30e	1.0293901
63	0x3f11b8fe	0.569229
64	0x3f5a5e37	0.8530001
65	0x3f5206bc	0.82041526
66	0x3f82fffa	1.0234368
67	0x3f477c92	0.77924454
68	0x3f41c056	0.75684106
69	0x3f4c6623	0.7984335
70	0x3f15eb7e	0.5856246
71	0x3f51159b	0.8167359
72	0x3f79c0ba	0.975597
73	0x3f8338b1	1.0251676
74	0x3f9be345	1.2178732
75	0x3fa62f1e	1.2983129
76	0x3f7c0305	0.9844211
77	0x3f2445a7	0.6416878
78	0x3f86ec3e	1.0540845
79	0x3f62ce82	0.88596356
80	0x3f96c8ab	1.1779989
81	0x3f7e0bbe	0.9923667
82	0x3fba478e	1.4553087
83	0x3f315b64	0.69280076
84	0x3f2dca03	0.6788637
85	0x3f9fb541	1.2477189
86	0x3f9346d4	1.150599
87	0x3fc6af65	1.5522276
88	0x3faf9159	1.3716232
89	0x3f3b0cb0	0.73066235
90	0x3f8f8b0a	1.1214306
91	0x3f914c31	1.1351377
92	0x3f1dbef7	0.61619514
93	0x3fae3b35	1.3611819
94	0x3f6f110f	0.93385404
95	0x3f9a6caa	1.2064412
96	0x3f2bb039	0.6706577
97	0x3f9c3373	1.2203201
98	0x3f9acd25	1.2093855
99	0x3fa4e034	1.2880921

running_var f4 [100]
0	0x400de274	2.2169466
1	0x40668962	3.6021352
2	0x400e2345	2.2209027
3	0x3ff687a3	1.9260143
4	0x4011de9e	2.2792125
5	0x4067118f	3.6104467
6	0x3edeeb2f	0.43538806
7	0x3ff877bf	1.9411544
8	0x3f377b04	0.7167208
9	0x3fc1b3e2	1.5133021
10	0x3fd9e1a0	1.702198
11	0x3fa24d74	1.2679887
12	0x40114a5e	2.270164
13	0x3f7baf56	0.98314416
14	0x4009213c	2.1426535
15	0x4081a376	4.0512037
16	0x40cae974	6.3409977
17	0x3fdb00e0	1.7109642
18	0x3fa3ec5f	1.280651
19	0x40009efe	2.009704
20	0x4040f0b8	3.0146923
21	0x3f9eb32e	1.2398431
22	0x3fc7d6e9	1.561246
23	0x3fbad00d	1.4594742
24	0x4065c6ce	3.590259
25	0x407c727e	3.944488
26	0x3fd6c829	1.6779834
27	0x4021f604	2.5306406
28	0x4015387b	2.3315723
29	0x40f424f0	7.629509
30	0x3eb62ff2	0.35583454
31	0x3fa42a51	1.2825414
32	0x3f6f93c0	0.93584824
33	0x3ff3dd02	1.9051821
34	0x3f7963cf	0.9741792
35	0x4072db7c	3.7946463
36	0x3fa0c022	1.2558634
37	0x403fa658	2.9945278
38	0x3fe5a90f	1.7942218
39	0x3fe86a0c	1.8157363
40	0x4007e72e	2.123485
41	0x4089b045	4.3027673
42	0x3f35fa7f	0.7108535
43	0x3f8d2a90	1.1028614
44	0x3fd927d7	1.6965283
45	0x3f9828a6	1.1887405
46	0x3f2ec358	0.6826682
47	0x3f4dbc0b	0.80365056
48	0x3fe3dd7e	1.7801969
49	0x404614e2	3.0950246
50	0x3fcda845	1.6066977
51	0x40326302	2.787293
52	0x40672f0e	3.612247
53	0x3fdc2d00	1.7201233
54	0x3f6463f3	0.8921501
55	0x403deedc	2.9677038
56	0x4078c8ac	3.887248
57	0x404bb5ce	3.1829715
58	0x3f365478	0.7122264
59	0x3fa2d096	1.2719905
60	0x4087f134	4.2481937
61	0x3fa32b56	1.27476
62	0x400764d0	2.115528
63	0x3f45824a	0.7715193
64	0x3fbc8086	1.4726722
65	0x3f98e306	1.1944282
66	0x3ff3d4e8	1.9049349
67	0x3f842e45	1.032662
68	0x3f9d2347	1.2276391
69	0x3fc2f307	1.5230416
70	0x3f6c91f8	0.9241023
71	0x3f9fa521	1.2472268
72	0x401bd7f2	2.4350553
73	0x3fa583f2	1.2930892
74	0x402d20ec	2.7051344
75	0x404dbe44	3.214738
76	0x3fe2b2d0	1.7710819
77	0x3f28e6af	0.65976995
78	0x400f4e76	2.2391639
79	0x3ff92c15	1.9466578
80	0x3fb60ecf	1.4223269
81	0x3fffeb97	1.9993771
82	0x4083b794	4.1161594
83	0x3f6e9c17	0.93206924
84	0x3f9b894d	1.2151276
85	0x40449995	3.071874
86	0x3fe86d2d	1.8158318
87	0x409977f2	4.795892
88	0x4038ffd6	2.890615
89	0x3f904428	1.12708
90	0x3f8b3948	1.0876856
91	0x3fc30572	1.5236037
92	0x3f41353f	0.7547187
93	0x406e8d69	3.727381
94	0x3fe4e5e2	1.7882655
95	0x401e23c3	2.4709327
96	0x3f569824	0.838259
97	0x403725ea	2.861689
98	0x3fe2aed4	1.7709603
99	0x40516b84	3.2721872
